appcontrole/assets/model/fruits_classifier.tflite (tflite, 149624 bytes, 10 tensors)

arith.constant f4 [128]
-0.013531565 0.009491729 0.0 0.00014294051 -0.008946373 -0.0058349515 -0.00820331 -0.013629478
0.0014602551 -0.0036940463 0.006599108 -0.0046937834 0.007711152 -0.0077432394 0.029642032 -0.00035616147
0.0005727363 -0.0046924045 0.028015343 0.009342051 0.009851127 -0.008961153 0.019087726 0.005639582
-0.0005508982 0.023267658 0.02201307 0.002398938 0.021776127 0.00481518 0.02790743 0.021342786
-0.005523085 0.0064304913 0.014137249 0.0057086297 0.008863542 -0.016168464 0.0029202222 1.3672851e-05
0.0 0.010687464 -0.0054037245 -0.0023065133 0.016839689 -0.007689197 -0.004286562 0.009868345
-0.008090901 0.017844131 0.016520657 0.0 -0.0074486 0.014587351 0.014379559 -0.011372194
1.7789425e-05 -0.009482575 0.029141499 0.0063514146 0.008745725 0.0034649516 -0.002202183 -0.007879918
-0.010152359 -0.013454311 0.022751508 -0.0076991115 0.0 -0.0071899914 -0.016114898 -7.5012795e-05
-0.0027173406 -0.006764827 -0.0037250658 0.0011472866 0.01716973 -0.008053238 -0.022746198 -0.006818707
-0.013868394 0.004936186 0.0061801164 0.010233837 -0.013661102 -0.012704924 -0.005234652 0.004756998
-0.0060131396 0.020350888 0.01057871 -0.0124767255 0.0 0.01037125 -0.0016889988 -0.008890307
0.012285189 -0.007900794 -0.0026854288 -0.009713711 0.005833124 -0.0005128072 0.024978016 -0.008063657
-0.0072343037 0.0046011144 -0.005991955 0.012173498 -0.00874618 0.008205541 -0.0011225176 -0.014536143
-0.0023202586 0.035636965 -0.014635961 -0.0076429457 0.008785024 -0.0114183575 0.011339248 0.011829061
-0.011684446 -0.0125704985 0.0 0.0023056434 -0.009894891 -0.006065177 -0.014483994 0.0021458922
00000000: 7fb3 5dbc 3283 1b3c 0000 0000 4de2 1539
00000010: cf93 12bc 1f33 bfbb 2d67 06bc 2d4e 5fbc
00000020: 0866 bf3a d017 72bb 553d d83b 4fce 99bb
00000030: d5ad fc3b 00bb fdbb d9d3 f23c 2fbb bab9
00000040: af23 163a bec2 99bb 6f80 e53c 670f 193c
00000050: 9f66 213c cdd1 12bc dd5d 9c3c 3ecc b83b
00000060: 276a 10ba d19b be3c c154 b43c 8037 1d3b
00000070: d963 b23c a8c8 9d3b 1f9e e43c 11d7 ae3c
00000080: fffa b4bb dfb6 d23b ec9f 673c 750f bb3b
00000090: 6438 113c ba73 84bc 3361 3f3b 7364 6537
000000a0: 0000 0000 791a 2f3c ba11 b1bb df28 17bb
000000b0: 63f3 893c a9f5 fbbb 4a76 8cbb d7ae 213c
000000c0: b38f 04bc db2d 923c 5456 873c 0000 0000
000000d0: 6313 f4bb c9ff 6e3c 3e98 6b3c 7052 3abc
000000e0: 803a 9537 cd5c 1bbc 27ba ee3c 871f d03b
000000f0: 3b4a 0f3c 3e14 633b 8052 10bb c61a 01bc
00000100: 1456 26bc 786f 5cbc 5f61 ba3c d448 fcbb
00000110: 0000 0000 059a ebbb 6403 84bc 3050 9db8
00000120: 6915 32bb 7bab ddbb 3c20 74bb 8d60 963a
00000130: 89a7 8c3c baf1 03bc 3c56 babc 766f dfbb
00000140: 4338 63bc bbbf a13b 9382 ca3b d3ab 273c
00000150: d1d2 5fbc 5028 50bc 7287 abbb 97e0 9b3b
00000160: df09 c5bb e8b6 a63c 5352 2d3c 2e6b 4cbc
00000170: 0000 0000 2dec 293c 6561 ddba a6a8 11bc
00000180: d147 493c 5572 01bc 05fe 2fbb 4226 1fbc
00000190: ca23 bf3b e96d 06ba b29e cc3c 6e1d 04bc
000001a0: bd0d edbb f2c4 963b 2958 c4bb 5a73 473c
000001b0: 234c 0fbc 8970 063c 7121 93ba 0129 6ebc
000001c0: 7b0f 18bb 11f8 113d abcb 6fbc ad71 fabb
000001d0: 10ef 0f3c 1014 3bbc 41c8 393c aece 413c
000001e0: 1e70 3fbc 7ef4 4dbc 0000 0000 471a 173b
000001f0: 2e1e 22bc 64be c6bb 464e 6dbc 19a2 0c3b

arith.constant1 f4 [32]
0.020879077 0.01030153 -0.014235055 -0.019573808 -0.0065134494 -0.0051446753 -0.008953246 0.014004379
-0.010440568 -0.005222259 -0.0071564578 -0.013402747 0.010329589 0.008507493 -0.017613614 -0.014841717
0.020698324 0.011366152 0.009588904 0.038397208 -0.012074756 -0.013216065 -8.018021e-05 -5.0395156e-05
0.03449976 -0.013020816 -0.0075661615 -0.0076642865 0.009760735 0.0 -0.019657034 0.016121672
00000000: 990a ab3c c0c7 283c 263a 69bc 4059 a0bc
00000010: c66e d5bb aa94 a8bb a3b0 12bc 9f72 653c
00000020: eb0e 2bbc 7c1f abbb b880 eabb 3297 5bbc
00000030: 703d 293c 0363 0b3c 6d4a 90bc ac2a 73bc
00000040: 888f a93c 1939 3a3c c71a 1d3c 6446 1d3d
00000050: 33d5 45bc 3288 58bc 6c26 a8b8 635f 53b8
00000060: 9f4f 0d3d 4355 55bc 90ed f7bb b224 fbbb
00000070: 7deb 1f3c 0000 0000 ca07 a1bc 9911 843c

arith.constant2 f4 [32]
0.0078337435 0.02334147 -0.005565949 0.0024804706 0.018855862 -0.027901169 0.011424505 0.006456693
0.00716319 -0.0075082905 -0.0043528406 0.007237991 -0.005145106 -0.013540536 0.018136183 -0.005947245
0.018861284 -0.0052979686 0.018549144 -0.01489841 -0.017438443 -0.008278928 0.013345993 -0.015244114
-0.014051125 -0.017029405 -0.00088335597 0.032199845 -0.039283507 -0.014618247 0.029575067 -0.036303367
00000000: 1a59 003c 9c36 bf3c 9062 b6bb 648f 223b
00000010: 9c77 9a3c fe90 e4bc d92d 3b3c ab92 d33b
00000020: 31b9 ea3b 1b08 f6bb 46a2 8ebb ab2c ed3b
00000030: 4798 a8bb 20d9 5dbc 5592 943c 1be1 c2bb
00000040: fb82 9a3c 959a adbb 60f4 973c 7618 74bc
00000050: 11db 8ebc 57a4 07bc 27a9 5a3c 73c2 79bc
00000060: b136 66bc 4081 8bbc 0491 67ba fce3 033d
00000070: bee7 20bd 5f81 6fbc 6947 f23c d7b2 14bd

arith.constant3 f4 [32]
-0.011167958 -0.0049366984 -0.006814142 0.0 -0.026951168 -0.024970409 0.039989237 0.0089617595
-0.0063650794 0.032882597 0.029398615 -0.038756065 0.025167508 0.015103697 0.018499848 -0.007168532
0.025435967 0.028898474 -0.0333732 -0.018534709 -0.041100476 0.009598811 0.034039866 0.020517096
0.027327465 0.00914373 0.0 -0.038334496 0.031354196 -0.047554716 -0.037440684 -0.0056581153
00000000: d0f9 36bc 07c4 a1bb 2b49 dfbb 0000 0000
00000010: b2c8 dcbc be8e ccbc c1cb 233d 58d4 123c
00000020: 2892 d0bb e7af 063d 5dd5 f03c aebe 1ebd
00000030: 172c ce3c 7f75 773c fe8c 973c 01e6 eabb
00000040: 175f d03c 7ebc ec3c 56b2 08bd 1ad6 97bc
00000050: f958 28bd 5544 1d3c 636d 0b3d 7813 a83c
00000060: d9dd df3c 95cf 153c 0000 0000 a204 1dbd
00000070: 426d 003d bcc8 42bd 675b 19bd b667 b9bb

arith.constant4 f4 [3]
2.7417635e-05 -0.015215171 0.010903467
00000000: ecfe e537 0d49 79bc 75a4 323c

arith.constant5 f4 [32, 3, 3, 32]
0.055749834 0.110236056 -0.081283994 -0.09167693 -0.051493067 0.052058253 -0.01987955 0.0008278145
-0.004407606 0.023595443 0.00030330915 0.058468882 0.09299424 -0.037384998 -0.012750332 -0.060653396
0.09283727 -0.066596374 -0.035122775 -0.034984417 -0.026480123 0.10012954 0.127673 0.086373486
-0.014090465 0.0067540044 -0.046249963 -0.07572288 0.12075321 0.10725494 -0.008040998 0.12362485
-0.036863253 0.009987822 -0.057407316 0.00067151844 0.1162986 -0.049589373 -0.025683783 -0.0014971722
-0.011615772 -0.08930821 0.09773279 0.024903113 -0.009571724 0.0614692 0.07281998 -0.035887398
-0.028704155 0.10068704 0.027236 0.0029109048 0.049990755 0.047166914 0.07024114 0.0693537
-0.010333981 -0.0666508 0.004179177 -0.043371744 -0.04736067 -0.0007063568 -0.081190884 -0.05402124
0.07172832 0.036053866 0.015926993 -0.035241522 0.012457495 -0.09407421 0.087889366 0.010222553
0.051607285 -0.0035037803 -0.04419914 0.021066507 0.042517304 0.0228015 0.040275194 0.020571766
-0.044707626 -0.025771797 -0.0033883716 0.019253006 -0.0830887 0.06576697 -0.040770307 0.020506538
-0.0070631066 0.07437615 -0.0132939685 0.05028284 0.08044473 0.0068281847 -0.07371392 -0.0035068742
0.083981894 0.037367783 -0.08862971 0.089996785 0.037993155 0.02287979 0.05516484 0.08294837
0.099479556 -0.05253631 -0.047894966 -0.019149553 -0.05332851 -0.060361758 -0.021320159 -0.002941468
0.10982554 -0.08385841 0.0073424475 -0.027745735 0.06739581 0.081056006 0.029374143 0.041597884
-0.028330937 -0.010734107 0.1048501 -0.09382636 0.03322948 0.09211405 -0.047785196 -0.06392309
-0.016460244 0.10902615 -0.033823214 0.096783325 0.13891603 -0.08741234 -0.059634656 -0.030819073
0.06704456 0.0732987 -0.08498396 -0.086914964 0.019959748 0.051488698 -0.095517166 -0.068914
0.08538965 0.056820273 -0.07501044 0.03278092 -0.014736294 -0.05269283 0.09269378 -9.58866e-05
-0.0719675 -0.08755369 -0.11453193 -0.10155406 0.07115226 0.043808732 0.01717336 -0.07522052
0.03386858 0.11071742 0.051152557 0.08711535 -0.051499948 -0.074145295 -0.0774581 -0.041089535
0.096465215 -0.02153915 0.043843877 -0.10153816 0.07210314 0.04704992 -0.044691984 -0.029993238
-0.056282762 -0.009093523 -0.06941543 0.029902795 -0.08465265 -0.010110278 0.11393017 0.054574553
0.07961832 -0.0021391702 -0.0038223995 -0.046839643 0.008142461 -0.06646935 0.065112256 -0.006567241
0.048452787 0.019065518 0.033071935 0.03893307 -0.0064450633 0.09805792 -0.09304455 0.0124175465
0.13784374 0.036583636 0.014421324 -0.07881707 0.09517351 0.017895397 0.011662329 -0.05958152
-0.00339962 0.06639482 -0.0395542 -0.007566182 -0.05219767 -0.039479915 0.022954825 -0.0106532425
0.051878445 0.06836339 0.11181265 0.045887955 -0.04321112 0.12185408 -0.019873736 -0.09331092
0.04156453 -0.06784278 -0.06535916 0.048915464 0.0057829684 0.01373479 -0.04400897 0.044217102
0.07752909 0.053497214 0.09321507 0.044442028 0.09309429 -0.09773556 -0.04107088 -0.037979584
0.076635465 -0.044961948 0.048229516 -0.08001601 0.024928859 -0.08407302 0.07027144 -0.020901918
0.049108956 -0.13835245 0.06466357 -0.04370425 -0.007106258 -0.081624046 -0.035005406 -0.027093876
00000000: f059 643d 71c3 e13d 3978 a6bd 1dc1 bbbd
00000010: 65ea 52bd 093b 553d 70da a2bc b101 593a
00000020: ae6d 90bb 3b4b c13c 7705 9f39 117d 6f3d
00000030: c473 be3d 0321 19bd c5e6 50bc b26f 78bd
00000040: 7721 be3d ae63 88bd e6dc 0fbd d24b 0fbd
00000050: d8ec d8bc b710 cd3d b6bc 023e 95e4 b03d
00000060: b2db 66bc b250 dd3b 9a70 3dbd 9914 9bbd
00000070: 754d f73d 7aa8 db3d 64be 03bc 062f fd3d
00000080: ecfd 16bd f6a3 233c ef23 6bbd d708 303a
00000090: f62d ee3d 3a1e 4bbd cc66 d2bc c33c c4ba
000000a0: 1450 3ebc 39e7 b6bd 2128 c83d 9d01 cc3c
000000b0: b8d2 1cbc 21c7 7b3d a422 953d aafe 12bd
000000c0: fa24 ebbc 0235 ce3d 081e df3c e1c4 3e3b
000000d0: 1bc3 4c3d 1832 413d 96da 8f3d 5009 8e3d
000000e0: dc4f 29bc 3780 88bd 7af1 883b 92a6 31bd
000000f0: 43fd 41bd cd2a 39ba 6847 a6bd 6045 5dbd
00000100: 4ce6 923d 38ad 133d 5379 823c 6a59 10bd
00000110: 851a 4c3c fba9 c0bd 57ff b33d 7f7c 273c
00000120: 2962 533d ae9f 65bb 280a 35bd ab93 ac3c
00000130: a026 2e3d 36ca ba3c 9af7 243d 1f86 a83c
00000140: 581f 37bd 601f d3bc 710f 5ebb 7bb8 9d3c
00000150: 692a aabd d5b0 863d c4fe 26bd 54fd a73c
00000160: a271 e7bb 8652 983d f2ce 59bc 61f5 4d3d
00000170: 35c0 a43d f7be df3b 53f7 96bd 96d3 65bb
00000180: b3fe ab3d f60e 193d 7e83 b5bd 3c50 b83d
00000190: b69e 1b3d 666e bb3c 87f4 613d d6e0 a93d
000001a0: f0bb cb3d 5030 57bd 832d 44bd 86df 9cbc
000001b0: ff6e 5abd e43d 77bd 9da7 aebc a5c5 40bb
000001c0: 36ec e03d f5bd abbd ea98 f03b 064b e3bc
000001d0: d006 8a3d b100 a63d 0ba2 f03c 8b62 2a3d
000001e0: 4816 e8bc 1cde 2fbc a6bb d63d 0928 c0bd
000001f0: a31b 083d 4ba6 bc3d 69ba 43bd 1cea 82bd
00000200: a2d7 86bc 1a49 df3d 368a 0abd 5636 c63d
00000210: 0140 0e3e 3e05 b3bd 7843 74bd 4878 fcbc
00000220: a94e 893d a11d 963d 120c aebd 7900 b2bd
00000230: a082 a33c d0e5 523d 819e c3bd c922 8dbd
00000240: c5e0 ae3d 60bc 683d 139f 99bd 4945 063d
00000250: 7f70 71bc 70d4 57bd 3dd6 bd3d ba16 c9b8
00000260: b263 93bd 594f b3bd b78f eabd 93fb cfbd
00000270: 47b8 913d c970 333d 25af 8c3c 370d 9abd
00000280: c8b9 0a3d d1bf e23d 5885 513d 8869 b23d
00000290: 9cf1 52bd 7dd9 97bd 5aa2 9ebd 804d 28bd
000002a0: 8e8f c53d df72 b0bc a395 333d 3df3 cfbd
000002b0: d0aa 933d 6bb7 403d f10e 37bd 61b4 f5bc
000002c0: c188 66bd 00fd 14bc ad29 8ebd b5f6 f43c
000002d0: 5e5e adbd 94a5 25bc 3954 e93d 9189 5f3d
000002e0: ee0e a33d 5231 0cbb 3981 7abb edda 3fbd
000002f0: f567 053c 1521 88bd 9359 853d 0332 d7bb
00000300: 6e76 463d 4a2f 9c3c 7076 073d 4878 1f3d
00000310: 1c31 d3bb 97d2 c83d 248e bebd f772 4b3c
00000320: e926 0d3e b9d8 153d 6b47 6c3c d86a a1bd
00000330: 54ea c23d 5e99 923c 5a13 3f3c c00b 74bd
00000340: 29cc 5ebb 02fa 873d 9603 22bd bced f7bb
00000350: 39cd 55bd b1b5 21bd c20b bc3c f08a 2ebc
00000360: 7e7e 543d 1b02 8c3d 08fe e43d 02f5 3b3d
00000370: 25fe 30bd a28e f93d 3fce a2bc cc19 bfbd
00000380: 923f 2a3d 28f1 8abd 06db 85bd 955b 483d
00000390: 0e7f bd3b e207 613c c042 34bd fe1c 353d
000003a0: 92c7 9e3d e51f 5b3d 8be7 be3d d808 363d
000003b0: 38a8 be3d 9529 c8bd f039 28bd 7b90 1bbd
000003c0: 0ef3 9c3d 052a 38bd 508c 453d 6fdf a3bd
000003d0: 9b37 cc3c 7a2e acbd 79ea 8f3d 803a abbc
000003e0: 7926 493d 44ac 0dbe 556e 843d 3a03 33bd
000003f0: 9ddb e8bb 822a a7bd d461 0fbd faf3 ddbc

arith.constant6 f4 [32, 3, 3, 32]
0.0882024 0.013027014 0.0014802292 0.06757191 -0.022332221 -0.010142695 0.019154033 0.12640625
0.008679934 0.16474584 -0.023022464 -0.08312828 0.05876096 -0.026910905 -0.011038628 0.007990593
0.023212308 -0.0045456323 0.11200159 0.045099277 0.08273513 0.077844225 0.007040705 0.08025289
-0.061512165 0.06822219 0.08820218 0.030786393 -0.02187526 0.08845396 -0.09133696 0.037072673
-0.04458219 -0.030929126 -0.0014183 0.06187193 0.0058014104 -0.13416478 0.13243312 0.025746154
-0.100451455 0.0748265 -0.07651559 -0.059286818 0.03200794 0.03448634 -0.042457882 0.041821275
0.059671305 0.03590397 -0.09301664 0.101580255 0.048897438 0.117080264 0.09114132 -0.056206718
0.11043934 0.051122565 0.088565305 -0.021550192 0.09576229 0.07932404 0.004070709 -0.10374207
0.0017082433 -0.10779966 -0.07797525 -0.0039912015 0.022932146 -0.03639412 -0.059648067 0.071495704
0.08128488 0.08311518 -0.037264604 -0.041023064 -0.005426228 -0.10434888 0.023167985 0.077684894
0.012493557 0.0057936055 -0.047731157 0.06424817 -0.06601124 -0.012341135 0.021325367 0.09238177
0.11573382 -0.012501005 -0.00899563 -0.04331727 0.08090371 0.0036383495 0.07843559 0.09616453
-0.034299266 -0.040843237 -0.021250736 0.06771423 0.0887444 -0.039164633 0.12196376 0.042520616
-0.0641656 0.035788562 -0.025070496 -0.01572172 -0.0077821924 0.047601562 -0.025477221 -0.008068106
-0.03982187 -0.014673278 0.06388555 0.0137835825 0.08562101 -0.05858828 0.0011149232 0.08130088
-0.061302353 0.11051217 -0.019041494 -0.026849974 -0.07711741 0.09390254 0.021804228 -0.028673822
-0.06344271 0.040354203 -0.031263985 -0.04438753 0.074342236 -0.016845677 -0.050415825 0.08059299
0.05361359 0.1389113 -0.078651614 -0.021996398 0.098651275 0.05411136 0.12535152 0.034863517
-0.047179244 0.07883138 0.04856849 0.09008295 0.06102865 -0.0046667736 0.11547617 0.032983053
0.017247649 0.04596631 0.02131585 -0.052045334 -0.14514159 -0.070488214 -0.08356257 -0.08219601
-0.10461474 0.043168064 0.014727796 -0.07145127 -0.0029279604 0.00027133274 0.06157755 0.031012591
-0.064298965 0.118234895 -0.03872992 -0.07969964 0.020397455 -0.051759373 -0.040987365 0.051508456
-0.007974103 0.033063862 -0.121577166 0.02495583 -0.023249302 0.08477747 0.14641678 -0.003421301
0.047338575 -0.055725854 0.063557014 -0.063988246 -0.048045978 0.017158011 -0.08442801 0.051452808
-0.030315202 0.0022435198 0.064046934 -0.08949874 -0.0032522783 0.0146382 0.050367665 0.1153211
0.036408767 0.10249994 -0.13203149 0.06527493 -0.11534134 -0.070375346 -0.027325178 -0.055177864
-0.0069871442 -0.02664692 0.069933265 -0.0143357 0.034945413 0.10573756 -0.0116954865 0.08107818
0.04139161 0.14469065 0.027862877 0.020652955 0.12861407 0.02178417 -0.00500518 0.045563612
0.036042634 0.09568965 0.03143261 0.021878928 -0.044285845 -0.03395452 0.011255258 0.09997152
-0.109384194 0.16793607 -0.011025151 -0.050502647 0.06638339 0.004207515 0.0022861545 0.022191819
-0.030596906 0.06637385 0.035451382 -0.034259822 0.042110678 0.024251463 0.05452483 0.05675526
0.042063467 -0.021859644 0.07109851 -0.11601478 -0.04815561 -0.054353442 0.011894132 -0.13274717
00000000: 76a3 b43d 426f 553c 4004 c23a 2463 8a3d
00000010: 10f2 b6bc 8c2d 26bc ebe8 9c3c a470 013e
00000020: 4836 0e3c 22b3 283e 9b99 bcbc 293f aabd
00000030: 55af 703d 4274 dcbc 5ddb 34bc faea 023c
00000040: bd27 be3c 87f3 94bb 1761 e53d 05ba 383d
00000050: 0971 a93d cb6c 9f3d b7b5 e63b a15b a43d
00000060: 2ef4 7bbd 13b8 8b3d 58a3 b43d bf33 fc3c
00000070: bf33 b3bc 5a27 b53d df0e bbbd 84d9 173d
00000080: d19b 36bd 145f fdbc 40e6 b9ba 6c6d 7d3d
00000090: c219 be3b 7e62 09be 8c9c 073e 99e9 d23c
000000a0: 7eb9 cdbd a33e 993d 35b4 9cbd bcd6 72bd
000000b0: c21a 033d 8c41 0d3d 51e8 2dbd c94c 2b3d
000000c0: e669 743d 0b10 133d 827f bebd 4f09 d03d
000000d0: ae48 483d c7c7 ef3d 4da8 ba3d 0439 66bd
000000e0: 052e e23d e565 513d ba61 b53d 078a b0bc
000000f0: 051f c43d a474 a23d 9563 853b b976 d4bd
00000100: 22e7 df3a 11c6 dcbd 7db1 9fbd a0c8 82bb
00000110: 32dc bb3c 0012 15bd 8851 74bd 576c 923d
00000120: b078 a63d 4b38 aa3d c5a2 18bd cd07 28bd
00000130: 80ce b1bb deb4 d5bd c9ca bd3c 4219 9f3d
00000140: c7b1 4c3c 49d8 bd3b bf81 43bd 8b94 833d
00000150: e730 87bd 7932 4abc 89b2 ae3c a732 bd3d
00000160: da05 ed3d 04d1 4cbc 6862 13bc 736d 31bd
00000170: d8b0 a53d 6071 6e3b d7a2 a03d e9f1 c43d
00000180: 637d 0cbd 3d4b 27bd 0616 aebc c2ad 8a3d
00000190: a0bf b53d 186b 20bd 23c8 f93d 192a 2e3d
000001a0: 4169 83bd 0797 123d a460 cdbc d6ca 80bc
000001b0: c301 ffbb dbf9 423d 9bb5 d0bc 1730 04bc
000001c0: 421c 23bd 3068 70bc 6dd6 823d 89d4 613c
000001d0: 115a af3d 44fa 6fbd 9d22 923a 1381 a63d
000001e0: 2d18 7bbd 3454 e23d e8fc 9bbc 7af4 dbbc
000001f0: bcef 9dbd fa4f c03d c89e b23c 5de5 eabc
00000200: 40ee 81bd 734a 253d aa0e 00bd b3cf 35bd
00000210: be40 983d f2ff 89bc d380 4ebd f00d a53d
00000220: ec99 5b3d c43e 0e3e 1914 a1bd ca31 b4bc
00000230: ae09 ca3d e0a3 5d3d 265c 003e 0ccd 0e3d
00000240: 063f 41bd 5972 a13d c1ef 463d 697d b83d
00000250: 2df9 793d bceb 98bb c57e ec3d 3d19 073d
00000260: f14a 8d3c 2b47 3c3d 949e ae3c 7d2d 55bd
00000270: ff9f 14be 205c 90bd da22 abbd 6256 a8bd
00000280: 4140 d6bd ffd0 303d db4c 713c 0b55 92bd
00000290: 06e3 3fbb aa41 8e39 be38 7c3d 1e0e fe3c
000002a0: 2daf 83bd 2325 f23d 44a3 1ebd 9139 a3bd
000002b0: 9018 a73c a301 54bd 5ee2 27bd 88fa 523d
000002c0: d0a5 02bc f96d 073d 73fd f8bd 2b70 cc3c
000002d0: 5275 bebc cf9f ad3d 48ee 153e e837 60bb
000002e0: 18e6 413d cb40 64bd 2e2a 823d 450c 83bd
000002f0: dccb 44bd f58e 8c3c 98e8 acbd 2ec0 523d
00000300: 9657 f8bc 0408 133b 0a2b 833d 1e4b b7bd
00000310: 2d24 55bb 10d5 6f3c 534e 4e3d 782d ec3d
00000320: 5c21 153d 7deb d13d 4333 07be ddae 853d
00000330: 1538 ecbd f320 90bd 0dd9 dfbc 2f02 62bd
00000340: 6af4 e4bb a44a dabc 2c39 8f3d 49e0 6abc
00000350: ec22 0f3d ef8c d83d 6d9e 3fbc 510c a63d
00000360: 408a 293d c929 143e b040 e43c 6330 a93c
00000370: 68b3 033e b774 b23c 7e02 a4bb e9a0 3a3d
00000380: 71a1 133d eff8 c33d 7bbf 003d 703b b33c
00000390: 1365 35bd e513 0bbd f967 383c debd cc3d
000003a0: d204 e0bd 6ff7 2b3e d6a2 34bc dddb 4ebd
000003b0: 04f4 873d 32df 893b 4fd3 153b 9ecb b53c
000003c0: 5da6 fabc 03ef 873d 7835 113d 0754 0cbd
000003d0: 3f7c 2c3d 01ab c63c 6e55 5f3d 3478 683d
000003e0: be4a 2c3d ff12 b3bc 189c 913d 2899 edbd
000003f0: d13e 45bd b7a1 5ebd 9bdf 423c e0ee 07be

arith.constant7 f4 [3, 128]
-0.14674425 0.039811287 -0.10318277 0.09709656 -0.08492957 -0.076683246 -0.1015461 0.20585479
0.03595998 0.17408532 0.08157801 -0.21069793 0.1905612 -0.20058693 0.17761746 -0.2537709
-0.19827059 0.12237851 -0.09190734 -0.17140166 0.21907197 0.16408002 -0.15287527 0.16911863
0.2191809 0.10353635 0.009801724 -0.025447514 0.030422283 0.0704534 0.17009482 0.13058881
0.10855083 -0.30063915 0.12964357 0.13624318 0.15353768 -0.14403622 0.04367006 0.0781667
0.04693277 -0.12117179 -0.15672843 -0.18378577 0.21086498 -0.023694878 0.1260986 0.17282149
-0.015146116 -0.0087978635 0.1669811 -0.09145276 0.121648505 -0.15983894 -0.12162621 0.048396245
0.048622448 -0.22027843 -0.025420982 0.1429649 -0.077672236 0.22115259 -0.11543455 0.023476206
-0.19343653 0.20022574 0.11062298 0.19328839 -0.016821086 -0.12178287 0.23313616 0.093690366
0.10164318 -0.12749101 -0.038536634 0.18853566 0.20985775 -0.07653385 -0.18773194 0.23808582
-0.003637906 -0.08510152 0.23019996 0.13296115 -0.18420243 -0.111716956 -0.12807012 -0.093967445
-0.034490447 -0.122877106 -0.13479178 -0.16683283 0.15879254 -0.071741305 0.16812278 0.1972795
0.009525879 0.20982991 -0.20183985 0.1991295 -0.21597892 0.09759378 0.23095891 0.07796282
0.1273539 -0.1503341 -0.08934779 0.11908958 0.20624468 -0.10134416 -0.15272418 -0.12334502
0.055807974 0.078263156 -0.2030671 -0.10907889 -0.014784834 0.1811707 0.18656129 -0.12165241
-0.047278397 0.050969962 0.006680295 -0.09732634 0.009549777 0.027375758 -0.07275357 -0.17920086
0.047115944 -0.20700932 -0.022534326 0.11598666 0.059481565 0.24250878 -0.11911166 0.21696535
0.20524019 0.040846776 0.06638507 -0.21583442 0.039066836 -0.10701511 -0.0984796 0.09499758
0.017265666 -0.17455727 -0.19572064 0.053367373 -0.21691012 -0.008367294 0.1952524 -0.23753853
0.12328801 0.015636256 0.2324561 -0.06365096 -0.21078165 -0.04060512 -0.24604356 -0.2599617
0.21761607 -0.06583245 -0.15193205 -0.1559297 -0.05942596 -0.011902083 0.09715219 0.026930748
-0.07481785 -0.15913741 0.10888144 0.106844544 -0.16180821 0.16586193 -0.18136899 0.23095739
0.033157967 0.20504288 -0.042207215 -0.15500529 -0.13974403 -0.041566398 -0.19511648 0.16991937
-0.16154511 -0.07558092 -0.18974528 -0.2363227 0.18626831 -0.041308973 0.12957767 0.11882526
-0.01848273 -0.06655448 -0.21759292 0.019752176 -0.07142252 -0.16705209 -0.13823175 0.028255321
0.24482268 -0.05853646 0.19736142 -0.13501203 -0.11727119 0.23164767 -0.018854823 0.1960903
0.13191089 0.11880081 -0.18782926 -0.1398456 -0.00028150348 -0.17890476 0.031507146 0.103335574
0.07839484 -0.12275391 0.0124989 0.08639727 -0.0811342 -0.12730455 -0.17245163 0.17086321
-0.11061222 0.22931245 0.1606244 0.1690502 0.06694201 -0.16188249 -0.21843122 0.18115017
0.07084972 0.09704789 -0.066777274 -0.07696723 -0.076378554 0.036787968 0.051035084 0.077446885
-0.018274255 -0.10767506 -0.14692624 0.06452159 0.23700568 0.002375873 0.24212737 -0.1767382
-0.11663715 0.007666484 -0.1633145 0.16694535 0.0028544855 0.24459706 0.2067764 -0.14671427
00000000: 2044 16be 2911 233d 7d51 d3bd 90da c63d
00000010: 8eef adbd 1b0c 9dbd 67f7 cfbd 99cb 523e
00000020: c64a 133d 6c43 323e 5f12 a73d 33c1 57be
00000030: 7a22 433e a966 4dbe 5ae1 353e 42ee 81be
00000040: 7207 4bbe 96a1 fa3d ea39 bcbd eb83 2fbe
00000050: 6754 603e 9804 283e 568b 1cbe 6f2d 2d3e
00000060: f570 603e de0a d43d 6997 203c 4e77 d0bc
00000070: 2738 f93c df49 903d 562d 2e3e 13b9 053e
00000080: e64f de3d 60ed 99be 49c1 043e 5583 0b3e
00000090: fb38 1d3e 3b7e 13be 60df 323d dd15 a03d
000000a0: 943c 403d ea28 f8bd 6b7d 20be 5632 3cbe
000000b0: fdec 573e c31b c2bc fe1f 013e 1ef8 303e
000000c0: 6a27 78bc ea24 10bc 18fd 2a3e 964b bbbd
000000d0: da22 f93d d2ac 23be 2a17 f9bd 243b 463d
000000e0: 5528 473d ab90 61be aa3f d0bc 6465 123e
000000f0: 9f12 9fbd d375 623e f368 ecbd 2c51 c03c
00000100: 3a14 46be fa07 4d3e 4d8e e23d 64ed 453e
00000110: 60cc 89bc 4c69 f9bd 3fbb 6e3e bce0 bf3d
00000120: 4d2a d03d 018d 02be 97d8 1dbd 7e0f 413e
00000130: f3e4 563e c7bd 9cbd cd3c 40be c5cc 733e
00000140: ef69 6ebb b549 aebd 8ab9 6b3e f826 083e
00000150: 909f 3cbe dccb e4bd d024 03be 0172 c0bd
00000160: db45 0dbd fea6 fbbd db06 0abe 3ad6 2abe
00000170: 839a 223e 1bed 92bd 6128 2c3e a303 4a3e
00000180: 6f12 1c3c a7dd 563e 1baf 4ebe 9be8 4b3e
00000190: 9429 5dbe 3fdf c73d 7e80 6c3e f9aa 9f3d
000001a0: 1069 023e 2ff1 19be f9fb b6bd 3de5 f33d
000001b0: ce31 533e 878d cfbd ba63 1cbe 509c fcbd
000001c0: e796 643d 6f48 a03d d2f0 4fbe c164 dfbd
000001d0: 173c 72bc d084 393e ec09 3f3e e624 f9bd
000001e0: fea6 41bd e1c5 503d 60e6 da3b 0853 c7bd
000001f0: ab76 1c3c 2043 e03c d3ff 94bd 6e80 37be
00000200: a6fc 403d 40fa 53be e899 b8bc 6a8a ed3d
00000210: f1a2 733d 3954 783e d0f0 f3bd 2a2c 5e3e
00000220: 7c2a 523e f34e 273d e5f4 873d b303 5dbe
00000230: 8c04 203d bd2a dbbd acaf c9bd 178e c23d
00000240: ba70 8d3c 24bf 32be fe6a 48be bf97 5a3d
00000250: b01d 5ebe fa16 09bc 3ff0 473e 4d3d 73be
00000260: 6d7e fc3d 9b17 803c f908 6e3e 6f5b 82bd
00000270: 25d7 57be 8e51 26bd d8f2 7bbe b319 85be
00000280: bfd6 5e3e 2ad3 86bd 1394 1bbe 09ac 1fbe
00000290: a368 73bd f400 43bc baf7 c63d df9d dc3c
000002a0: 1a3a 99bd ebf4 22be 3bfd de3d 50d1 da3d
000002b0: 0db1 25be b6d7 293e cbb8 39be 1880 6c3e
000002c0: a6d0 073d c3f6 513e 79e1 2cbd b5b9 1ebe
000002d0: 0f19 0fbe 8741 2abd 9dcc 47be 58ff 2d3e
000002e0: 156c 25be 2bca 9abd 964c 42be 94fe 71be
000002f0: 1fbd 3e3e 9933 29bd 02b0 043e a85a f33d
00000300: 1869 97bc b74d 88bd aed0 5ebe 51cf a13c
00000310: f845 92bd b40f 2bbe a08c 0dbe b477 e73c
00000320: ccb2 7a3e edc3 6fbd 1d19 4a3e 9840 0abe
00000330: e12b f0bd 0c35 6d3e 6e75 9abc e5cb 483e
00000340: a613 073e d74d f33d 5056 40be af33 0fbe
00000350: c296 93b9 cf32 37be a30d 013d 9aa1 d33d
00000360: 798d a03d 6766 fbbd 30c8 4c3c 0df1 b03d
00000370: b029 a6bd 205c 02be 2997 30be c4f6 2e3e
00000380: a988 e2bd e2d0 6a3e b97a 243e 7f1b 2d3e
00000390: e418 893d 86c4 25be 6fac 5fbe 6e7f 393e
000003a0: a819 913d 0bc1 c63d 86c2 88bd ffa0 9dbd
000003b0: 5c6c 9cbd fbae 163d 2a0a 513d 799c 9e3d
000003c0: e4b3 95bc be84 dcbd d573 16be e523 843d
000003d0: 9eb1 723e 89b4 1b3b 3df0 773e dcfa 34be
000003e0: 75df eebd 2137 fb3b eb3b 27be b9f3 2a3e
000003f0: 5212 3b3b a777 7a3e 31bd 533e 443c 16be

arith.constant8 f4 [128, 128]
0.0003958465 -0.02091806 -0.12010911 -0.10444643 -0.13195264 -0.038982835 -0.09088177 -0.09331992
-0.021326201 -0.1516239 0.03132133 0.040473033 -0.033699844 -0.12387828 0.030291338 -0.059074942
-0.022692861 -0.070035554 0.049128667 0.01887424 -0.068404466 -0.10780086 -0.106064 0.13051908
-0.048776764 0.07887792 0.13162775 -0.03085389 -0.14328538 -0.093647465 0.10535798 0.0035663925
0.043093633 0.0800128 0.09588763 0.028542263 -0.10600499 0.089318536 0.025506437 -0.084985
0.14025219 -0.1061299 0.088809684 0.07784842 0.11794473 0.102229185 0.009344339 -0.055491276
0.008072046 -0.12884547 -0.074680135 -0.092691496 -0.07334974 0.13963579 -0.13186486 0.102747776
-0.017564017 -0.03915267 0.097482726 -0.06824054 -0.15809238 -0.12606224 0.047422126 -0.123895496
-0.11978994 0.12505402 -0.2114996 0.20656733 0.10343526 0.08915514 -0.13635571 -0.15911733
0.082981035 -0.11771755 0.11906354 0.05504578 0.08666812 -0.07368907 0.1098751 0.16210169
-0.088682584 -0.05908061 0.014602289 0.0619586 0.17113812 0.06679671 0.06712014 0.036383245
0.14440368 0.15333731 0.092740655 0.068511866 0.10441795 0.043849304 0.12340735 -0.119068734
-0.21564111 -0.18129344 -0.013063124 0.13884592 0.018085137 -0.036020033 -0.001987189 -0.022433832
0.03231349 0.0075356215 0.15017168 0.03437372 0.112708904 0.09401333 0.11215451 0.0011688955
0.03522182 0.028004784 0.14232829 -0.047816306 -0.07264158 0.028003912 0.080530606 0.03579106
-0.16023685 -0.08872269 -0.08821711 -0.0049423114 -0.08721166 0.061048597 0.08194075 -0.079149075
0.21437338 -0.0028192275 0.15364537 0.05248244 -0.09981641 -0.058977764 -0.019416198 0.050391007
0.013565943 -0.115034744 0.06326908 0.12099692 -0.046874847 -0.106592014 0.092164814 -0.11214467
-0.031074192 -0.037598528 0.09927294 -0.07635221 0.03972106 0.104088895 0.04805793 0.14432378
-0.08866461 -0.0030385256 -0.026224628 -0.12792632 -0.13345437 0.10852294 -0.082553074 0.07470655
0.18059821 -0.05067622 -0.047904726 0.120624505 -0.011947259 0.16820222 -0.11197084 -0.04798335
0.14782475 -0.04668323 -0.030577056 0.050069064 -0.058974735 -0.05316215 0.09439789 0.07437975
-0.12479299 0.06830713 -0.16684651 0.1733777 -0.07703307 -0.077180296 -0.1433976 -0.11028874
-0.021825314 0.14966588 0.009639755 -0.1022512 0.11771745 -0.061383665 0.019777393 0.06267798
0.099007234 -0.018739112 -0.016952552 -0.11346987 -0.0363065 0.034521967 -0.02399715 0.15206325
-0.085215464 -0.055992685 0.13740511 -0.1394185 0.04779475 0.13522501 -0.09196931 -0.03130747
0.07385541 0.12004656 0.09241881 -0.051526822 -0.13602223 -0.15559551 0.023827622 -0.0075888745
-0.012322104 0.13214283 -0.13799122 0.10641609 -0.1505539 0.08496049 0.12864114 0.10501437
0.015567357 0.14178741 0.09154358 0.030439338 0.07793404 -0.12508667 0.11279766 -0.054787286
-0.03374596 -0.103168294 0.115075715 0.1322661 0.11258871 0.09939798 -0.0132252835 -0.111305386
-0.09530443 -0.113753 -0.0077375825 0.13854396 0.046899654 -0.16751714 -0.164475 0.0559613
4.0415605e-05 0.033598036 0.123639055 0.10410009 -0.038053945 -0.0010581017 -0.12246351 0.11592379
00000000: 9e89 cf39 5a5c abbc c4fb f5bd 03e8 d5bd
00000010: 981e 07be 77ac 1fbd 3920 babd 841e bfbd
00000020: 49b4 aebc 4c43 1bbe cc4a 003d 0dc7 253d
00000030: d908 0abd e5b3 fdbd 8a25 f83c 91f8 71bd
00000040: 61e6 b9bc cd6e 8fbd 243b 493d 269e 9a3c
00000050: a417 8cbd b3c6 dcbd 1538 d9bd cba6 053e
00000060: 25ca 47bd bf8a a13d 6dc9 063e 4cc1 fcbc
00000070: 67b9 12be 3eca bfbd edc5 d73d 23ba 693b
00000080: f382 303d c0dd a33d bc60 c43d 77d1 e93c
00000090: 2519 d9bd a3ec b63d e0f2 d03c 9e0c aebd
000000a0: 459e 0f3e a25a d9bd dae1 b53d fe6e 9f3d
000000b0: 028d f13d 895d d13d 0019 193c d24a 63bd
000000c0: 9d40 043c 11f0 03be e6f1 98bd 0ad5 bdbd
000000d0: 6338 96bd affc 0e3e 9507 07be 6d6d d23d
000000e0: 6ae2 8fbc 8d5e 20bd 06a5 c73d b2c1 8bbd
000000f0: f8e2 21be 7616 01be b43d 423d ecbc fdbd
00000100: 6e54 f5bd 290e 003e 5a93 58be 6386 533e
00000110: ded5 d33d f896 b63d d5a0 0bbe a7ef 22be
00000120: f6f1 a93d e615 f1bd 96d7 f33d af77 613d
00000130: 0e7f b13d 4cea 96bd 3206 e13d fcfd 253e
00000140: 379f b5bd 82fe 71bd 703e 6f3c 4dc8 7d3d
00000150: d53e 2f3e b7cc 883d 4976 893d 9906 153d
00000160: 8fde 133e 7504 1d3e d0ee bd3d f34f 8c3d
00000170: 14d9 d53d 549b 333d febc fc3d 4fda f3bd
00000180: 06d1 5cbe fda4 39be b706 56bc a02d 0e3e
00000190: 4827 943c be89 13bd 803b 02bb 28c7 b7bc
000001a0: 265b 043d 60ed f63b 9bc6 193e 75cb 0c3d
000001b0: edd3 e63d 108a c03d 44b1 e53d a035 993a
000001c0: c144 103d 4a6a e53c 82be 113e 08db 43bd
000001d0: 1cc5 94bd 7668 e53c 3bed a43d a699 123d
000001e0: 2115 24be 3eb4 b5bd 2cab b4bd 1df3 a1bb
000001f0: 079c b2bd 180e 7a3d 8dd0 a73d e918 a2bd
00000200: b284 5b3e cac2 38bb 3655 1d3e d4f7 563d
00000210: 8c6c ccbd ab92 71bd b80e 9fbc cd66 4e3d
00000220: b043 5e3c 5697 ebbd 3893 813d 3ccd f73d
00000230: d7ff 3fbd ea4c dabd e8c0 bc3d 1bac e5bd
00000240: 4e8f febc ea00 1abd 9c4f cb3d 8c5e 9cbd
00000250: 8db2 223d 8f2c d53d 64d8 443d 9dc9 133e
00000260: cb95 b5bd 0022 47bb 08d5 d6bc 1eff 02be
00000270: 43a8 08be 4641 de3d 9611 a9bd bfff 983d
00000280: bdee 383e de91 4fbd bf37 44bd fb09 f73d
00000290: 70be 43bc 343d 2c3e f850 e5bd 308a 44bd
000002a0: 5f5f 173e ea36 3fbd bc7c fabc 3815 4d3d
000002b0: 7e8f 71bd 8ec0 59bd ae53 c13d 6954 983d
000002c0: 7893 ffbd 9ce4 8b3d d0d9 2abe ec89 313e
000002d0: 84c3 9dbd b410 9ebd d2d6 12be 10df e1bd
000002e0: 00cb b2bc 0342 193e 10f0 1d3c 1469 d1bd
000002f0: d915 f13d 706d 7bbd 3304 a23c 505d 803d
00000300: 4ec4 ca3d c482 99bc 14e0 8abc e462 e8bd
00000310: 20b6 14bd e866 0d3d ac95 c4bc 78b6 1b3e
00000320: 7285 aebd 9658 65bd edb3 0c3e b9c3 0ebe
00000330: 6ec4 433d 6d78 0a3e 685a bcbd 433c 00bd
00000340: 8141 973d f9da f53d 1346 bd3d ca0d 53bd
00000350: 6949 0bbe 6e54 1fbe 2532 c33c 18ac f8bb
00000360: a6e2 49bc 7350 073e 924d 0dbe aef0 d93d
00000370: cd2a 1abe c4ff ad3d 81ba 033e c611 d73d
00000380: 3a0e 7f3c b830 113e 337b bb3d eb5b f93c
00000390: e29b 9f3d b816 00be 7602 e73d a268 60bd
000003a0: 3439 0abd e649 d3bd d1ac eb3d c470 073e
000003b0: e994 e63d 2b91 cb3d dcae 58bc 14f4 e3bd
000003c0: f82e c3bd 55f7 e8bd 8c8b fdbb 78de 0d3e
000003d0: da19 403d 9d89 2bbe 226c 28be ad37 653d
000003e0: ed83 2938 189e 093d 7936 fd3d 6e32 d53d
000003f0: 74de 1bbd 00b0 8aba 26ce fabd 7469 ed3d

sequential_1/conv2d_1/Relu;sequential_1/conv2d_1/BiasAdd;sequential_1/conv2d_1/convolution; f4 [32, 3, 3, 3]
0.00013516986 -0.0003735667 0.0005449863 8.313835e-05 -0.00051530486 -0.0003277944 -0.0004416275 -8.611038e-05
-3.6496658e-05 -0.0001459893 -0.00055607955 0.0001542769 0.00035621366 0.00036533378 -0.00028095534 -0.00027579215
0.00010842056 -4.0477895e-05 -0.00014219938 0.0005471801 0.00047316597 -0.0003517204 5.225365e-05 -0.00034603127
0.00045941712 0.00044853668 0.0005368281 -0.0004300722 0.00014265723 -0.00020170522 -0.00020122889 -4.653858e-05
0.00049116154 -0.00052159716 -0.00032966607 0.000549183 -7.489789e-05 0.00032715566 -0.0004512645 -5.550351e-05
-0.0002822893 0.00045010497 -0.00045043346 -0.0005026389 0.00020177466 0.00019600199 -0.00017475923 -0.00040411088
-0.00022392815 0.00043950818 -0.00044817 -0.00012462685 0.00036727497 -0.00019085119 0.00038451515 -0.00046344707
4.5674577e-05 -0.00021831675 -0.00056515663 0.00039995922 0.00015917014 0.00030333517 -9.1758855e-05 -0.0002618089
6.0904797e-05 -0.00053301034 -7.7766475e-05 4.765853e-05 -0.00039681525 -0.00017094275 0.00021963495 -0.00029832136
-0.00047066953 0.0002170975 0.00010636346 -0.0005339509 0.00012685856 0.0002510901 -0.00021149749 -0.00053846586
0.00014222767 -0.00040304387 1.8251294e-06 0.0004251249 -0.00035476725 0.00051826553 0.00019649998 -0.00031115836
-0.0004792284 0.0002581622 -0.00048282588 0.0003517725 -7.385016e-06 -0.00028659683 -0.00046952584 -0.0003940535
-0.00016475917 -0.00042220432 -0.00038091256 -0.00047939343 0.00025153157 0.00012352082 -0.00039866546 -0.000512821
-0.0003708464 -0.00044583343 0.00011369867 -0.00024812858 -0.0001224474 0.00059094606 0.00015311773 0.00027942064
0.00033649246 -0.00027907643 0.00022927113 0.00057912816 0.00057583407 0.00041494705 0.0005556008 -0.0002664243
-0.00015038138 0.000102445614 0.00046971146 -0.00019305269 7.1637565e-05 -0.0002261641 -0.0004110345 -0.00044227263
-0.00064092403 -0.00052386423 0.0002952151 -0.00014127734 -0.00020932128 -0.00038576155 -0.0005701555 -0.0005397965
-0.00021821428 -0.00019718547 -0.00052408135 0.0004057891 -0.00019552674 1.4497911e-06 0.00027712042 0.00028649895
0.00039533505 -0.00041192526 0.0004599312 7.228834e-05 0.00012660699 -5.796329e-05 8.103457e-05 -0.00023083172
-0.00028464085 -0.00020617676 0.00023182367 -1.8698676e-05 -0.0003742386 0.00035710493 0.00064450194 0.00020490546
0.00056229613 0.00069054303 9.062e-05 -0.00036582025 -0.00035105675 -0.00018830081 -0.00040026003 -0.0005414649
0.00041296234 -0.0003839133 0.0003590611 0.00039783685 0.0004279764 0.00015969762 0.00056268554 0.00013511202
-0.00038246918 -3.783871e-05 -0.00035523012 -6.064166e-05 -0.00016718627 -9.98078e-05 0.00013938987 0.00022158987
-0.0002462216 0.0002996806 0.0002793483 -0.0003227394 -3.4657092e-05 0.00035953062 0.00023866669 0.0004010566
0.0005293369 0.00020115201 0.00035652527 -0.00023567218 -0.0005214561 -0.00019953834 0.00015231532 -0.00047532073
0.00043070927 -0.00017717243 -0.000600926 -0.00012583079 -7.9889534e-05 -0.0003053188 1.4400568e-05 0.00042386883
0.0002394176 -5.630731e-05 -0.0005409572 -0.00035315414 0.0004225723 0.00030438902 -0.0002409856 -0.0003788167
-0.0002990377 -7.771524e-05 0.00019760548 0.0005585501 -0.00065150036 0.00041797076 0.00026477946 -3.1947904e-05
0.0004325118 0.00012303195 1.357224e-05 -3.1016105e-05 7.3826865e-05 0.00025634555 -0.0001407627 0.000399166
-0.0003380487 0.0001344594 8.089906e-06 -0.0006469151 -0.00012877278 0.0005114982 0.00022324664 -0.00023285774
0.0005738086 2.2322074e-05 0.00045513903 -5.3385622e-05 -0.00037086935 -0.00023028308 0.0005530507 -0.00032274876
5.3280197e-05 -0.000375748 -0.00043733252 -5.1450614e-05 0.0004190347 -8.049731e-05 0.0006602108 0.0004524562
00000000: 62bc 0d39 46db c3b9 69dd 0e3a 905a ae38
00000010: 8615 07ba d2db abb9 3d8a e7b9 2996 b4b8
00000020: fd13 19b8 b414 19b9 dec5 11ba 64c5 2139
00000030: 30c2 ba39 458a bf39 304d 93b9 3298 90b9
00000040: d85f e338 cfc6 29b8 5b1b 15b9 a370 0f3a
00000050: 4313 f839 1d67 b8b9 ee2a 5b38 886b b5b9
00000060: ecdd f039 9329 eb39 edb9 0c3a 507b e1b9
00000070: 4296 1539 d580 53b9 f800 53b9 6b32 43b8
00000080: 4bc1 003a cbbb 08ba 08d7 acb9 0cf7 0f3a
00000090: 8012 9db8 1786 ab39 b297 ecb9 71cc 68b8
000000a0: 3a00 94b9 11fc eb39 2828 ecb9 87c3 03ba
000000b0: 7993 5339 e285 4d39 933f 37b9 d8de d3b9
000000c0: 41ce 6ab9 ca6d e639 5cf8 eab9 44ae 02b9
000000d0: d08e c039 3a1f 48b9 c098 c939 d0fa f2b9
000000e0: b492 3f38 f5eb 64b9 0527 14ba 9eb1 d139
000000f0: e9e6 2639 f508 9f39 a96e c0b8 6543 89b9
00000100: 0774 7f38 b8b9 0bba 8f16 a3b8 f5e4 4738
00000110: a40b d0b9 183f 33b9 cf4d 6639 0468 9cb9
00000120: 32c4 f6b9 aba4 6339 730f df38 d7f8 0bba
00000130: 5605 0539 bea4 8339 6dc5 5db9 d527 0dba
00000140: f322 1539 a24f d3b9 f8f6 f435 4ce3 de39
00000150: 0e00 bab9 36dc 073a 900b 4e39 f822 a3b9
00000160: f240 fbb9 f259 8739 cb23 fdb9 1b6e b839
00000170: cecc f7b6 6042 96b9 b12a f6b9 f798 ceb9
00000180: 34c3 2cb9 4e5b ddb9 38b5 c7b9 1957 fbb9
00000190: ffdf 8339 5e85 0139 f903 d1b9 d66e 06ba
000001a0: 296e c2b9 c0be e9b9 8271 ee38 4117 82b9
000001b0: 3965 00b9 b8e9 1a3a 3a8e 2039 347f 9239
000001c0: 416b b039 0151 92b9 8068 7039 a2d0 173a
000001d0: 92f3 163a 408d d939 bda5 113a ddae 8bb9
000001e0: b2af 1db9 12d8 d638 9b43 f639 306e 4ab9
000001f0: 203c 9638 7726 6db9 1e80 d7b9 d4e0 e7b9
00000200: af03 28ba ef53 09ba 1ac7 9a39 d923 14b9
00000210: 417d 5bb9 0a40 cab9 7d76 15ba 2181 0dba
00000220: 73d0 64b9 92c3 4eb9 8162 09ba 17c0 d439
00000230: 4f06 4db9 7196 c235 794a 9139 3d35 9639
00000240: f944 cf39 acf7 d7b9 ec22 f139 8299 9738
00000250: cec1 0439 9c1d 73b8 1af1 a938 6b0b 72b9
00000260: d93b 95b9 2731 58b9 b115 7339 1adb 9cb7
00000270: 7435 c4b9 d039 bb39 cbf3 283a e4db 5639
00000280: 0e67 133a 8f05 353a 3e0b be38 90cb bfb9
00000290: 0a0e b8b9 9d72 45b9 fed9 d1b9 18f1 0dba
000002a0: de82 d839 f947 c9b9 5d40 bc39 c294 d039
000002b0: 0562 e039 8174 2739 3081 133a dbac 0d39
000002c0: 2586 c8b9 01b5 1eb8 2e3e bab9 7d59 7eb8
000002d0: b94e 2fb9 e84f d1b8 2f29 1239 945a 6839
000002e0: 4e17 81b9 731e 9d39 7f75 9239 5935 a9b9
000002f0: c55c 11b8 627f bc39 9a42 7a39 e844 d239
00000300: 33c3 0a3a 55ec 5239 03ec ba39 c51e 77b9
00000310: 54b2 08ba 2a3b 51b9 d5b6 1f39 7834 f9b9
00000320: d2d0 e139 5dc7 39b9 7687 1dba 72f1 03b9
00000330: 5e8a a7b8 3213 a0b9 f899 7137 b63a de39
00000340: 2c0c 7b39 842b 6cb8 06cf 0dba 8c27 b9b9
00000350: b28c dd39 6796 9f39 14b1 7cb9 eb9b c6b9
00000360: 29c8 9cb9 0dfb a2b8 5134 4f39 aa6b 123a
00000370: 73c9 2aba 1623 db39 19d2 8a39 cdff 05b8
00000380: c0c2 e239 2302 0139 54b4 6337 4a17 02b8
00000390: 7fd3 9a38 1e66 8639 b399 13b9 2747 d139
000003a0: 213c b1b9 acfd 0c39 e2b9 0737 bd95 29ba
000003b0: 2e07 07b9 1016 063a 5017 6a39 462b 74b9
000003c0: a56b 163a 4a40 bb37 ba9f ee39 60ea 5fb8
000003d0: 3e71 c2b9 2578 71b9 9bfa 103a 9b36 a9b9
000003e0: 2d79 5f38 0b00 c5b9 c749 e5b9 adcc 57b8
000003f0: e3b1 db39 aad0 a8b8 ff11 2d3a a537 ed39
